----------------------------------------------------------------
        Layer (type)               Output Shape         Param #
================================================================
            Conv3d-1     [-1, 32, 80, 160, 160]             896
       BatchNorm3d-2     [-1, 32, 80, 160, 160]              64
              ReLU-3     [-1, 32, 80, 160, 160]               0
            Conv3d-4     [-1, 32, 80, 160, 160]          27,680
       BatchNorm3d-5     [-1, 32, 80, 160, 160]              64
              ReLU-6     [-1, 32, 80, 160, 160]               0
          CNNLayer-7     [-1, 32, 80, 160, 160]               0
         MaxPool3d-8       [-1, 32, 40, 80, 80]               0
        Downsample-9       [-1, 32, 40, 80, 80]               0
           Conv3d-10       [-1, 64, 40, 80, 80]          55,360
      BatchNorm3d-11       [-1, 64, 40, 80, 80]             128
             ReLU-12       [-1, 64, 40, 80, 80]               0
           Conv3d-13       [-1, 64, 40, 80, 80]         110,656
      BatchNorm3d-14       [-1, 64, 40, 80, 80]             128
             ReLU-15       [-1, 64, 40, 80, 80]               0
         CNNLayer-16       [-1, 64, 40, 80, 80]               0
        MaxPool3d-17       [-1, 64, 20, 40, 40]               0
       Downsample-18       [-1, 64, 20, 40, 40]               0
           Conv3d-19      [-1, 128, 20, 40, 40]         221,312
      BatchNorm3d-20      [-1, 128, 20, 40, 40]             256
             ReLU-21      [-1, 128, 20, 40, 40]               0
           Conv3d-22      [-1, 128, 20, 40, 40]         442,496
      BatchNorm3d-23      [-1, 128, 20, 40, 40]             256
             ReLU-24      [-1, 128, 20, 40, 40]               0
         CNNLayer-25      [-1, 128, 20, 40, 40]               0
        MaxPool3d-26      [-1, 128, 10, 20, 20]               0
       Downsample-27      [-1, 128, 10, 20, 20]               0
           Conv3d-28      [-1, 256, 10, 20, 20]         884,992
      BatchNorm3d-29      [-1, 256, 10, 20, 20]             512
             ReLU-30      [-1, 256, 10, 20, 20]               0
           Conv3d-31      [-1, 256, 10, 20, 20]       1,769,728
      BatchNorm3d-32      [-1, 256, 10, 20, 20]             512
             ReLU-33      [-1, 256, 10, 20, 20]               0
         CNNLayer-34      [-1, 256, 10, 20, 20]               0
        MaxPool3d-35       [-1, 256, 5, 10, 10]               0
       Downsample-36       [-1, 256, 5, 10, 10]               0
           Conv3d-37       [-1, 512, 5, 10, 10]       3,539,456
      BatchNorm3d-38       [-1, 512, 5, 10, 10]           1,024
             ReLU-39       [-1, 512, 5, 10, 10]               0
           Conv3d-40       [-1, 512, 5, 10, 10]       7,078,400
      BatchNorm3d-41       [-1, 512, 5, 10, 10]           1,024
             ReLU-42       [-1, 512, 5, 10, 10]               0
         CNNLayer-43       [-1, 512, 5, 10, 10]               0
           Conv3d-44      [-1, 256, 10, 20, 20]         131,328
         Upsample-45      [-1, 256, 10, 20, 20]               0
           Conv3d-46      [-1, 256, 10, 20, 20]       3,539,200
      BatchNorm3d-47      [-1, 256, 10, 20, 20]             512
             ReLU-48      [-1, 256, 10, 20, 20]               0
           Conv3d-49      [-1, 256, 10, 20, 20]       1,769,728
      BatchNorm3d-50      [-1, 256, 10, 20, 20]             512
             ReLU-51      [-1, 256, 10, 20, 20]               0
         CNNLayer-52      [-1, 256, 10, 20, 20]               0
           Conv3d-53      [-1, 128, 20, 40, 40]          32,896
         Upsample-54      [-1, 128, 20, 40, 40]               0
           Conv3d-55      [-1, 128, 20, 40, 40]         884,864
      BatchNorm3d-56      [-1, 128, 20, 40, 40]             256
             ReLU-57      [-1, 128, 20, 40, 40]               0
           Conv3d-58      [-1, 128, 20, 40, 40]         442,496
      BatchNorm3d-59      [-1, 128, 20, 40, 40]             256
             ReLU-60      [-1, 128, 20, 40, 40]               0
         CNNLayer-61      [-1, 128, 20, 40, 40]               0
           Conv3d-62       [-1, 64, 40, 80, 80]           8,256
         Upsample-63       [-1, 64, 40, 80, 80]               0
           Conv3d-64       [-1, 64, 40, 80, 80]         221,248
      BatchNorm3d-65       [-1, 64, 40, 80, 80]             128
             ReLU-66       [-1, 64, 40, 80, 80]               0
           Conv3d-67       [-1, 64, 40, 80, 80]         110,656
      BatchNorm3d-68       [-1, 64, 40, 80, 80]             128
             ReLU-69       [-1, 64, 40, 80, 80]               0
         CNNLayer-70       [-1, 64, 40, 80, 80]               0
           Conv3d-71     [-1, 32, 80, 160, 160]           2,080
         Upsample-72     [-1, 32, 80, 160, 160]               0
           Conv3d-73     [-1, 32, 80, 160, 160]          55,328
      BatchNorm3d-74     [-1, 32, 80, 160, 160]              64
             ReLU-75     [-1, 32, 80, 160, 160]               0
           Conv3d-76     [-1, 32, 80, 160, 160]          27,680
      BatchNorm3d-77     [-1, 32, 80, 160, 160]              64
             ReLU-78     [-1, 32, 80, 160, 160]               0
         CNNLayer-79     [-1, 32, 80, 160, 160]               0
           Conv3d-80      [-1, 3, 80, 160, 160]           2,595
================================================================
Total params: 21,365,219
Trainable params: 21,365,219
Non-trainable params: 0
----------------------------------------------------------------
Input size (MB): 7.81
Forward/backward pass size (MB): 10851.56
Params size (MB): 81.50
Estimated Total Size (MB): 10940.88
----------------------------------------------------------------
/home/vince/nnunet/lib/python3.7/site-packages/torch/nn/functional.py:3613: UserWarning: Default upsampling behavior when mode=trilinear is changed to align_corners=False since 0.4.0. Please specify align_corners=True if the old behavior is desired. See the documentation of nn.Upsample for details.
…
